model.tflite (tflite, 741248 bytes, 16 tensors)

arith.constant f4 [64]
000000 f0 c5 0b bd 0a 40 16 be 4f f4 b7 bc 58 16 b9 bc
       -0.034124315 -0.14672866 -0.022455363 -0.022593662
000010 2d 1c cb bd 28 b1 3b 3d 9f 34 c1 3d 3b 62 1a 3e
       -0.099174835 0.045823246 0.09433865 0.15076534
000020 57 a0 69 3d 4b 34 88 3d 07 8e d2 bc af 27 84 bc
       0.057037678 0.06650599 -0.02570249 -0.016132204
000030 13 fa aa 3d 37 21 9d bc 82 c6 a2 3d c4 bb 72 bd
       0.08348479 -0.019180877 0.079480186 -0.0592611
000040 c1 67 01 bd be 5e c2 bc f5 e7 f9 bb 80 7f 4a 3d
       -0.031593088 -0.023726817 -0.0076265284 0.049438
000050 98 e3 81 3d 2e 68 a8 bc 0c 33 54 bd e1 97 8e bc
       0.06342238 -0.02055749 -0.051806495 -0.017406406
000060 41 22 20 bd 77 d4 f6 bd 45 39 7f bc c2 ca 2a bd
       -0.039095167 -0.12052243 -0.015577619 -0.04169727
000070 46 61 5c 3e 08 90 6c 3d 49 97 6a 3d 57 ea 04 3d
       0.21521482 0.057754546 0.057273183 0.032450046
000080 70 e7 30 3e bd 4a 24 3d 4f d2 af 3c e7 bd 13 3e
       0.17275786 0.04011034 0.021462588 0.14427911
000090 9c 6c 12 3d 30 ee 1e 3e 06 06 80 bd 4d 8d b8 bc
       0.03574811 0.15520549 -0.06251149 -0.022528315
0000a0 2c 38 b6 b9 b1 58 b9 bc 8a 3c 14 bd 9d 9b 90 bc
       -0.00034755596 -0.0226253 -0.036190547 -0.017652327
0000b0 bf 85 67 bd 9a dd de 3b ac 1f 89 3d ed 20 d0 bc
       -0.056524035 0.0068013193 0.06695494 -0.025406325
0000c0 85 31 ed 3d b8 6a a7 bc 9b 19 28 3d dc e7 9f bd
       0.11581711 -0.02043663 0.041040044 -0.078078955
0000d0 d2 dc 46 3d 48 59 f0 3d 1a 9f 4f 3c e5 24 3f 3d
       0.048550434 0.11735779 0.01267221 0.046666045
0000e0 c5 ee 3f bd ab aa e9 3d 1a 9f b8 bd b3 34 60 3d
       -0.046858568 0.114095055 -0.09014721 0.054737758
0000f0 61 84 70 3c d2 7c ad 39 4e a7 4a 3d 9d 93 91 3d
       0.014679999 0.0003309013 0.04947596 0.07108233

arith.constant1 f4 [64]
000000 22 a3 f9 bd fe d6 3f 3d 93 e8 84 bd 05 ba 1a be
       -0.12189318 0.046835892 -0.064896725 -0.15110023
000010 08 28 ff bc d7 aa 3d bd ae 82 58 bd f6 43 ab bc
       -0.031147018 -0.046305504 -0.052859 -0.02090643
000020 ef 90 6f bb 3f 31 37 3c 62 06 3a bc 0a 01 7f bd
       -0.0036554893 0.011181175 -0.011354061 -0.06225685
000030 fb 3e 84 bc 51 6d 1b be 52 b3 d8 3b 52 59 bb bc
       -0.016143313 -0.1517842 0.0066131735 -0.02286974
000040 e1 15 27 bd 46 df e9 bc 2a 7f 17 3b 22 3c 63 bd
       -0.04079235 -0.028548848 0.0023116567 -0.05547727
000050 dc 82 c1 3d 6e 28 78 bc c4 44 94 bd 3d 85 b0 bc
       0.094487876 -0.015146358 -0.072396785 -0.021547908
000060 bb a5 5a bd 6a 07 66 bd 38 f5 8c 3a cc 6f 74 3d
       -0.05338071 -0.056159414 0.0010754233 0.05967693
000070 06 8c 84 bd cf 31 82 bc 79 54 08 bd be 01 8d 3b
       -0.0647202 -0.015892891 -0.033283684 0.004303186
000080 1d fb 42 bc a8 5d f8 bc bd bc dc bc d7 36 0b 3e
       -0.01190069 -0.030318096 -0.026945466 0.13595138
000090 90 37 d9 bc c1 7a e5 bc 96 7f 47 bd be ba 3b bb
       -0.026515752 -0.028012635 -0.04870566 -0.0028645243
0000a0 38 eb 6e bd 50 64 cd 3d 4a 62 6f bc 2c 49 1f be
       -0.05832979 0.10028899 -0.014610836 -0.15555257
0000b0 80 2f 1d bd ca 1c bc 3a 7c 55 3c 3d 97 36 e5 3c
       -0.038375378 0.0014351842 0.04597996 0.027980132
0000c0 a8 19 41 bc b3 72 6a 3c 2a 3c 93 bd 97 6e 48 3d
       -0.011785902 0.014309573 -0.0718921 0.04893359
0000d0 b0 86 b1 bd bc 6a 88 3a b8 c8 d4 bd 34 27 67 3d
       -0.08668268 0.0010407786 -0.103898466 0.05643387
0000e0 2f bb 4e bd 57 07 e0 bd c4 ea 60 bd 8d d1 8a 3d
       -0.05047148 -0.109389 -0.05491139 0.0677825
0000f0 a8 45 2f bd dc 45 88 3c 35 40 89 3c 37 a0 82 bd
       -0.04279104 0.016634874 0.01675425 -0.06378215

arith.constant2 f4 [64]
000000 90 77 3e bd 9d 5f 7f bc 51 80 1c bd d2 13 3a 3d
       -0.046500742 -0.015586761 -0.03820831 0.04542906
000010 e0 94 d5 bc 95 42 1d bd 79 c2 e9 bc bb ae 47 3d
       -0.026071966 -0.038393576 -0.028535115 0.04875062
000020 99 64 11 bd 8b f2 10 bd be 05 91 3d 3c 6b 31 3c
       -0.035496328 -0.035387557 0.07081173 0.010828789
000030 2c 79 05 bd 07 51 8b bc 61 67 9a 3d 77 b5 bf bd
       -0.03258626 -0.01700641 0.07539249 -0.093607835
000040 53 b5 ab bc 9e 02 2b bd 17 0b 8a bb 3e 55 09 bd
       -0.020960486 -0.041750543 -0.004212748 -0.03352856
000050 ab ba c3 bd 5a 34 32 bd 66 c4 5d bd d5 e8 ac bc
       -0.095570885 -0.043506958 -0.05414238 -0.021107117
000060 77 26 8a 3d 8a d8 29 3d 4c 59 aa bd 1c 46 ff bc
       0.06745618 0.041466273 -0.08317813 -0.03116136
000070 54 21 2d bc f1 83 37 3d 52 57 02 bd c9 6a da bc
       -0.010567028 0.044803564 -0.031821556 -0.026662247
000080 3e df 7c bd 2c 12 89 3c 29 1b 62 3d 8e 1a f4 bb
       -0.061736338 0.016732298 0.055201683 -0.0074494546
000090 5b 90 85 bd 38 b9 cd 3c 45 d7 7a 3d 99 2a db bc
       -0.06521674 0.025112733 0.061240453 -0.02675371
0000a0 8a 16 6a bd e7 59 cf 3c 5f 4d 32 bd f9 41 73 bc
       -0.0571504 0.025311423 -0.043530818 -0.014847272
0000b0 4b cd 5c bd 30 17 2b 3d 04 ee 79 bd 53 67 c6 bc
       -0.05390672 0.04177016 -0.061018005 -0.02421919
0000c0 e2 dd 5a 3d 4d 66 0f bd c2 8f 30 bd 71 fb 0d bd
       0.05343426 -0.03500967 -0.043105848 -0.03466362
0000d0 3d 57 6c bc 08 67 09 3d 09 47 ec bc 0a 64 f3 bc
       -0.014425096 0.033545524 -0.028842466 -0.029710788
0000e0 bb 65 2a 3d df c5 35 bd 15 19 37 bd 7b 3f 14 3d
       0.041600924 -0.044378158 -0.044701654 0.036193352
0000f0 bb a4 36 bd ba 4a f1 bc 10 f5 39 3d 10 17 69 bc
       -0.044590693 -0.029454578 0.045399725 -0.01422669

arith.constant3 f4 [64]
000000 75 ee 66 bd f3 4a 47 bc 18 23 ee 3c c6 91 d5 bc
       -0.056379754 -0.012163865 0.029069468 -0.026070487
000010 13 fe c7 bd 34 02 8c 3b f3 a8 a8 bc 07 88 e9 bb
       -0.09765258 0.0042727236 -0.020588374 -0.0071268114
000020 93 dc 67 bd 19 4a 51 bd fc e6 d0 bc 09 92 e6 3c
       -0.05660684 -0.051096056 -0.025500767 0.028145807
000030 18 20 d5 bd 08 06 34 bd fd 46 a7 bc d0 24 95 bd
       -0.10406512 -0.043951064 -0.020419592 -0.07282412
000040 b8 90 9f 3c 72 13 6d bc 2b 6a df 3c 67 ed 94 bd
       0.019478187 -0.014469968 0.027272305 -0.072718434
000050 90 3f 51 bd 06 91 09 bd 72 6d aa 3d 45 89 42 bd
       -0.05108601 -0.03358557 0.08321656 -0.04749419
000060 84 db 4f 3d a8 b7 b4 bc cc 6f 12 bd ef de 60 bd
       0.050746456 -0.02206023 -0.03575115 -0.054900106
000070 eb e3 db bc cc 19 ad bc ca f3 a1 bc 8b 43 8e bc
       -0.026842078 -0.021130465 -0.019769568 -0.017366191
000080 b5 b3 b6 3d 26 e0 66 bc 75 36 ca bc ae 32 bc 3b
       0.08920995 -0.014091527 -0.02468417 0.005743346
000090 3c 55 50 3c 86 a4 99 bc 7f 92 81 bd 71 77 61 3b
       0.012715634 -0.018755209 -0.0632677 0.0034403468
0000a0 86 87 88 bd 8c 8a 33 b8 aa d9 15 bd 77 83 01 3d
       -0.06666474 -4.2805957e-05 -0.036584534 0.031619515
0000b0 48 59 b2 bc fd 1e be bc d3 a0 85 3b 61 49 64 bc
       -0.021771088 -0.023208136 0.0040780096 -0.0139335105
0000c0 59 6e de 3c 64 a9 4c bd 89 7c a9 bc ad e3 5e bd
       0.027152227 -0.04996623 -0.020689266 -0.054416347
0000d0 ef 6b d4 bc ac 9b f6 bc 0e 5a 5f 3c 40 7d 27 bd
       -0.025930373 -0.030103527 0.013632311 -0.040890932
0000e0 93 df 0e bc 4b 14 0c bd 64 82 a1 3d d2 42 b0 3c
       -0.008720296 -0.03419904 0.07886198 0.021516237
0000f0 77 fd 0e bd 32 b3 90 bd 9f 54 f3 bc db a0 80 bb
       -0.03490969 -0.07065429 -0.029703436 -0.0039254255

arith.constant4 f4 [64]
000000 0f 50 53 bc 1b 22 17 bd 7d 97 80 bd 89 10 87 3d
       -0.012897505 -0.03689776 -0.06278894 0.06594951
000010 cc 3c 58 bd f1 40 bc 3d 44 30 05 bd c6 35 54 bd
       -0.052792355 0.09192074 -0.032516733 -0.051809095
000020 f4 56 8e 3c cc 51 b0 bc d7 cd 58 bd 5c 97 0a bd
       0.017375447 -0.021523379 -0.05293068 -0.033835754
000030 b2 91 a4 bc 18 52 ae bc d9 aa ad bc 42 ba 29 bd
       -0.020089004 -0.02127938 -0.02119963 -0.041437395
000040 f4 e3 c7 39 67 8c db 3b a8 1c f6 bc d8 7d c9 3d
       0.00038126076 0.006700087 -0.030042961 0.09838456
000050 80 cd 1e bd ed 6f 5f bd 64 03 5a bc 96 de e0 3b
       -0.0387702 -0.0545501 -0.013306472 0.006862472
000060 dc c7 9e bc 3d 23 ae bc 53 11 30 bd 39 06 8c bc
       -0.01938241 -0.021257037 -0.04298527 -0.017092811
000070 1f 75 8b bc 72 4e cb bc ab 90 98 3c b3 4f 26 bd
       -0.017023621 -0.02481768 0.01862367 -0.04060335
000080 2a 74 e4 bc 7c 32 23 bd 93 20 95 3b 5e 32 07 3d
       -0.027887423 -0.039843068 0.0045510023 0.03300702
000090 24 3a 97 bc b1 25 84 3c 1a d5 ce 3d f1 c8 9d bd
       -0.01846034 0.016131254 0.1009924 -0.07704342
0000a0 7f af 87 bd 7c e2 29 bd 78 54 de bc 3e 1b c9 bc
       -0.0662527 -0.041475758 -0.027139887 -0.024549123
0000b0 9a 51 60 bd f2 01 87 bd 87 eb d0 bc f6 de bf 3c
       -0.05476532 -0.06592168 -0.025502933 0.023421746
0000c0 53 26 e1 bc 66 91 08 bd a4 f7 33 bd 12 26 ab bc
       -0.027484095 -0.033341788 -0.04393734 -0.020892177
0000d0 86 b8 81 bc b6 87 ae bd ef 2a 2c bc ef 1f 01 bc
       -0.015835058 -0.085219786 -0.010508283 -0.007881149
0000e0 07 0a cd bc 67 de 99 3d 16 e7 c4 bc 6b f0 f0 3d
       -0.025029195 0.07513123 -0.024035972 0.11764606
0000f0 32 2b d9 bc 46 bc 22 bd 22 4e b9 3d 05 e6 4c bd
       -0.026509855 -0.039730333 0.09048106 -0.05002405

arith.constant5 f4 [32]
000000 c2 62 cf bc cc dc 88 bc e2 85 1b 3d c7 c0 99 bc
       -0.025315646 -0.016706847 0.037969477 -0.018768681
000010 ad 67 87 bc ee f0 ee bc e3 11 48 bc cb 9e b5 3d
       -0.016528929 -0.029167619 -0.012211296 0.08868178
000020 ae 9e 98 bc 36 b8 b0 bc 00 86 6c 3c 3d 95 87 bc
       -0.018630352 -0.021572214 0.014436245 -0.016550655
000030 66 95 08 3d af 56 2a 3c 2c c9 77 bd d6 05 8d 3d
       0.033345602 0.010396644 -0.060494587 0.06885879
000040 72 07 90 3c ef 5e b2 3c 98 9d 72 3d 79 ba 0d bd
       0.017581675 0.021773783 0.059232324 -0.034601662
000050 8e d7 48 ba 60 90 ff bc 9c be 96 bc 66 42 4d bd
       -0.00076615147 -0.031196773 -0.018401437 -0.05011215
000060 eb 79 86 bd 3a 45 f0 bc f3 8c 91 3d 93 1f b5 bd
       -0.06566223 -0.029329885 0.07106962 -0.08843913
000070 c0 2c bb bc 50 1a a8 3c 01 fd 99 3d 95 1e 0a bd
       -0.022848487 0.02052036 0.0751896 -0.03372057

arith.constant6 f4 [64, 3, 3, 64]
000000 9d 14 e4 3d ce f4 ab bd 4f 7a 32 3d 40 9c 79 3e
       0.11136744 -0.08396302 0.043573674 0.24376011
000010 2b ed 98 3d 04 06 0c bc 40 bf 84 3e fa 1b 9c bc
       0.07467111 -0.008546356 0.25927162 -0.019056309
000020 70 50 c3 bc 76 01 83 bd 8e 11 14 3d ab 3f 0e be
       -0.023842067 -0.06396763 0.036149554 -0.13891475
000030 91 e5 ce bc c9 90 89 3e b2 44 1c be 92 a4 c4 3c
       -0.02525595 0.26868275 -0.1526058 0.024004254
000040 31 41 45 3d 70 97 39 3d 44 90 5a bd a8 77 01 3e
       0.048157874 0.045310438 -0.05336024 0.12643301
000050 12 40 d7 3c bb e8 2f bd 75 08 d3 3d 76 83 15 3d
       0.026275668 -0.04294656 0.103043474 0.036502324
000060 ae 0a 5a bd 6c 30 00 3e 05 fe ae 3b c6 31 03 bc
       -0.05323284 0.12518471 0.00534034 -0.008007472
000070 a4 2a 1d be b0 98 e5 bb eb fe 66 bd ef 78 ea 3d
       -0.15348297 -0.007006727 -0.056395452 0.114488475
000080 ef 2b 82 3d 7a 90 77 3d eb ac bf bc af d3 2d 3e
       0.06356036 0.060440518 -0.023397883 0.16975282
000090 a5 e1 59 3d ee 2a 01 3d 86 23 cd bd 31 82 d7 3c
       0.053193707 0.03153508 -0.10016541 0.026307197
0000a0 0c cd a6 3d ca 48 ef bd ad 54 71 3d 29 ce e2 3d
       0.08144578 -0.11683805 0.058918644 0.11074478
0000b0 a1 1b c0 bc 94 ef 92 3c c3 52 16 3d 47 1e c9 bc
       -0.023450674 0.017936505 0.03670002 -0.02455057
0000c0 92 8d ed 3d bb 39 82 bc 58 90 9e bd 28 23 1a 3d
       0.11599268 -0.015896669 -0.07742375 0.037631184
0000d0 19 c1 46 3d 9a 2a 92 bd a1 52 3c 3d a0 66 94 3d
       0.048523996 -0.07137032 0.04597724 0.07246137
0000e0 71 f1 00 bd 36 2b 1a 3c 31 0e 5a 3e ee 7c fa 3c
       -0.031480256 0.009409716 0.21294476 0.03057715
0000f0 2f 1b ca bd f2 c9 26 be 05 54 58 bd cc 99 f2 bb
       -0.09868466 -0.16287974 -0.052814502 -0.007403588
000100 9a 7b c2 3d 2f 35 e4 bc 11 c3 5e 3d ae 6b 00 3e
       0.094962314 -0.027857391 0.05438525 0.12541077
000110 a5 c5 77 3d c0 72 2f 3d a9 61 46 3e 40 64 90 bd
       0.060491223 0.042834044 0.19373192 -0.07050371
000120 10 ae 8f bd 18 1a e1 bc f1 df 17 3d 77 52 d5 bd
       -0.07015622 -0.027478263 0.0370788 -0.104161195
000130 ec b4 8d bc d8 bd 5c 3d 09 31 57 3d 0f 7e 0b bd
       -0.017298184 0.053891987 0.052536998 -0.034055766
000140 6d bd 1e 3d ca ce 6e 3d d1 29 09 bd ce 44 c9 3c
       0.03875487 0.05830268 -0.033487145 0.024568941
000150 7f fc e7 bc 25 ff b2 3c a1 08 85 3d d3 1c 99 bd
       -0.028318642 0.021850178 0.064957865 -0.07476201
000160 b2 a4 2a 3d f5 7b 6a bd 95 ee 92 3d 46 50 6c bd
       0.041660972 -0.05724712 0.07174412 -0.057693742
000170 9a 32 fc bc 82 02 da 3c ac cc 2d 3d c3 35 a8 bc
       -0.030785847 0.026612524 0.04243152 -0.020533448
000180 19 cd 60 3c b0 57 3b 3c cb d9 6a bd df 76 6f 3d
       0.013720774 0.011434481 -0.05733661 0.058462974
000190 cb e2 0f bd a8 ae c5 3c de 02 6e 3c 51 5a da 3d
       -0.035128396 0.024131134 0.014527051 0.10661758
0001a0 8d e6 58 bd ac bb 4d bd 3e 7c ea 3d 2e 76 12 3e
       -0.052954245 -0.050227806 0.114494786 0.14302894
0001b0 7c 03 0e bd d2 1f 39 bd a7 1b 83 bd 98 e7 f6 3d
       -0.03467129 -0.04519636 -0.06401759 0.12055892
0001c0 db 7b 67 bc b9 c5 30 3d 36 f7 4a bd 20 89 4c 3d
       -0.014128651 0.043157313 -0.049552165 0.04993546
0001d0 ad 8b b7 3b 65 ee c2 3c 87 7b 0e bc 86 57 3e 3d
       0.0056013674 0.023795316 -0.008696443 0.046470188
0001e0 71 04 18 3c 77 03 8a ba 5e f5 d5 3d eb 51 c2 bd
       0.009278403 -0.0010529597 0.10447191 -0.09488281
0001f0 7d 38 50 bd 21 aa 78 bd ef eb 3d 3b 9c 50 64 3b
       -0.05083512 -0.060709123 0.0028979739 0.0034838086
000200 75 42 07 3e 62 cf 5e bd 4c a8 81 bd c2 38 83 3a
       0.13208945 -0.054396994 -0.06330928 0.0010011422
000210 f8 bc 70 bd 74 25 a3 bd 1b 66 cf 3d ec 78 37 3d
       -0.058773965 -0.07966128 0.10126897 0.044793054
000220 a5 36 fe bd 05 a8 55 bd a1 a4 06 be 2a ba a7 bd
       -0.12412766 -0.05216219 -0.13148738 -0.08189805
000230 0a 2a f2 bc e3 70 59 3d f5 47 7b bd 5a 3a 26 bd
       -0.029561061 0.053086173 -0.06134792 -0.040582992
000240 f4 a5 69 3d 11 09 a3 ba f0 cc 1d bd aa 2e 83 bd
       0.05704303 -0.0012438615 -0.03852552 -0.06405385
000250 30 03 13 bc 78 3a 88 bd f7 a5 6c 3d 6c b9 5c bd
       -0.008972928 -0.06651777 0.057775464 -0.05388777
000260 92 bf 2c bd 26 2d 11 3d 0f 61 ea bc 76 09 13 be
       -0.042174883 0.035443448 -0.028610734 -0.14359078
000270 12 27 68 bd 2a 6b f8 bd 9f 98 23 bc 04 a6 1a bd
       -0.056677885 -0.12129815 -0.009985118 -0.03775598
000280 31 a3 30 bd 1f 2e 2d be d5 59 cf 3c 1a e0 68 3d
       -0.04312438 -0.16912125 0.02531139 0.056854345
000290 07 ff 36 bd 44 31 24 bd 76 8b 35 3d 5f 86 83 3d
       -0.044676807 -0.040086046 0.044322453 0.064221136
0002a0 0a a0 af bd b0 f8 1d be 5c af 8a 3d cd e4 34 3e
       -0.08575447 -0.15426898 0.067717284 0.17665406
0002b0 e9 5d 8f bd 4a 55 c8 bd 44 1d e9 bd b6 4e 4c bc
       -0.07000334 -0.097818926 -0.11382535 -0.012469938
0002c0 4b 43 00 3d bc 16 92 3c 47 4a fa bc 60 7b 24 3c
       0.031314176 0.017833106 -0.030552996 0.0100391805
0002d0 1a b4 58 bd f5 ca 09 bd fc c0 40 ba 31 a9 a9 bd
       -0.052906133 -0.03364082 -0.00073529757 -0.08284224
0002e0 a4 04 98 bd 11 c0 5d bd 06 ce 08 bd 3d 5f 08 be
       -0.0742276 -0.054138247 -0.033399604 -0.1331758
0002f0 29 65 c4 bd 5b db 8a bd d5 dc f2 bc 7a 26 4b bc
       -0.09589607 -0.0678012 -0.029646317 -0.01239931
000300 e2 ea 8b 3d 28 1d e6 bc 5c e2 34 bd f0 c0 40 3e
       0.0683191 -0.028090075 -0.044161186 0.188236
000310 10 ff f8 bd 01 b1 93 ba 29 a6 61 3d 74 61 4f 3b
       -0.12158024 -0.0011267961 0.055090103 0.003164378
000320 b2 52 11 be d9 a8 33 bc fd 4d a1 bc 40 22 03 be
       -0.14191702 -0.010965549 -0.019690508 -0.12806034
000330 57 9b b7 bc 3f b9 ea 3d 4a 69 c2 bd 37 37 eb bd
       -0.022412939 0.11461114 -0.094927385 -0.11485141
000340 7c 06 45 bc 73 58 4c 3d 5c 54 29 3d f9 74 47 3c
       -0.012025472 0.04988904 0.041340217 0.012173885
000350 f4 2d ef bc 24 db a4 b7 b9 bd 31 bd 89 b2 6f bd
       -0.029196717 -1.9652369e-05 -0.043393824 -0.058519874
000360 f3 8a 87 3d 79 f9 2f bc ea 5c f8 bd 7b 18 51 3d
       0.06618299 -0.010740631 -0.12127097 0.051048737
000370 3b 1c ef bc b3 8c 99 bd 7f 7f d3 3c ef f5 a5 3d
       -0.029188266 -0.07497539 0.02581763 0.08103549
000380 0b b6 bc bc eb b8 95 bd 55 63 5e 3c cf 39 a3 3d
       -0.023036024 -0.07310661 0.013573487 0.079700105
000390 ff f4 54 3c f4 a9 8b bd 3d 84 2b bd 53 e4 bc 3b
       0.012997865 -0.06819525 -0.04187416 0.005764523
0003a0 e5 ed 38 bd 7d d8 ed bc 95 1c 0d be 9a 2d 1f bd
       -0.04514875 -0.029033894 -0.13780434 -0.03886185
0003b0 c8 37 95 bd fc 6f 97 bd c3 6e 93 bd 15 a0 4f bd
       -0.0728603 -0.07394406 -0.071988605 -0.050689775
0003c0 b9 c3 2a 3d fa b9 bf bd 22 09 0f bc f6 04 ae bc
       0.041690562 -0.09361644 -0.008730205 -0.0212426
0003d0 79 e7 ab bd e1 34 04 3c 00 72 04 bd 71 dc fa bd
       -0.08393759 0.008069248 -0.03233528 -0.12249077
0003e0 29 ae 09 3d db 21 1f 3d 0f 40 93 3d 75 03 ae 3d
       0.033613358 0.038850646 0.071899526 0.08496753
0003f0 95 ad be bd e7 2f 06 3b 2a e6 fe bd ea 87 18 3c
       -0.09310452 0.002047533 -0.12446244 0.009309748

arith.constant7 f4 [64, 3, 3, 64]
000000 23 fa 3a 3d 79 5d 7c 3d 51 9a 8f bd 63 81 53 bd
       0.045648705 0.06161258 -0.070118554 -0.051637065
000010 4b 34 0c 3d 5a f5 0e bb b9 f9 c3 3c ba 2e 22 be
       0.034229558 -0.0021813721 0.023922788 -0.15838137
000020 4a 06 6b bd c2 d0 ee 3c d2 ae a2 bd 80 ac 09 be
       -0.057379045 0.029152278 -0.079435006 -0.1344471
000030 37 46 d2 3b 73 d7 4e bd af 18 8e 3c 14 d7 ed bd
       0.0064170617 -0.050498437 0.017345754 -0.116132885
000040 04 13 8c bd b8 30 2b be 99 8d 3b bd 5c 9b 39 bd
       -0.068395644 -0.16717803 -0.045789335 -0.045314178
000050 71 05 56 3c 27 98 b6 3d 2e 66 f5 bc 1b e1 12 bd
       0.013062821 0.089157395 -0.02995595 -0.03585921
000060 b3 36 dc bb 2d 74 9b bc ae 27 01 be 50 5c c6 3c
       -0.006720388 -0.018976295 -0.12612793 0.02421394
000070 bd 58 69 bd fe aa 93 3d 6a 13 89 3d f2 e1 11 3d
       -0.056969393 0.072103485 0.06693156 0.03561587
000080 66 2a c3 bc a3 a2 66 be f6 56 b8 bd 21 e1 ba bd
       -0.023823928 -0.22522978 -0.090009615 -0.09124971
000090 81 73 95 bd 6e 3a e8 bc 45 20 41 3d d9 e9 2b 3d
       -0.07297421 -0.028348174 0.047149915 0.04197106
0000a0 61 72 ac bd 8d d2 95 bd 2f 7e e6 bd 9c ac 5a bd
       -0.084202535 -0.0731555 -0.11254536 -0.05338727
0000b0 04 96 f8 bc a4 fe 0e bc 7b 3d 1b be bc c0 f2 3c
       -0.03034497 -0.008727703 -0.15160172 0.029632919
0000c0 fe a7 19 bd 27 d2 30 bd a4 da 41 3d 69 31 47 bd
       -0.037513725 -0.043169167 0.047327653 -0.048631106
0000d0 d6 ce f7 3d 5f b4 bc bd a0 42 04 3d 3a 70 3f 3c
       0.12099998 -0.092140906 0.0322901 0.011684472
0000e0 51 08 a9 bc 36 00 0f 3d ee 08 63 3d 0c 08 83 3c
       -0.020633848 0.03491231 0.055428438 0.015995048
0000f0 f2 32 ab bd 41 f7 7b 3d 01 0c 95 bd bb bd 4c bd
       -0.083593264 0.061515097 -0.0727768 -0.04998563
000100 53 93 4f 3d 0b ba 67 bd 97 c5 18 bd 9a 49 c2 bd
       0.05067761 -0.05657391 -0.03729781 -0.09486695
000110 05 d5 e7 bb 28 5c da 3c 00 ae af 3d f7 73 0e be
       -0.0070749545 0.026655272 0.0857811 -0.13911425
000120 57 d6 b9 3d e9 06 ef 3a c1 30 84 bd e8 7b d2 bd
       0.09074085 0.0018236312 -0.064546116 -0.102775395
000130 6c ae 18 3d 61 43 b3 3d ea 54 ca 3c ca a1 24 bd
       0.037275717 0.08753086 0.024698693 -0.040193357
000140 eb a5 80 3d 09 9a 0e be ad ae c5 bd 1f ca 77 bd
       0.06281646 -0.13925947 -0.096524574 -0.060495492
000150 b9 e8 e4 3b f7 ee 90 bc 67 23 21 bd 63 87 69 bb
       0.0069857505 -0.017692072 -0.039340403 -0.0035633675
000160 5f e7 5b 3d c3 5f 6b bc d8 02 21 bd 39 5a 57 3d
       0.05368745 -0.014366093 -0.039309353 0.052576277
000170 1e 05 3f 3c 54 90 c5 bc f4 e1 2e 3d fd b5 0a bd
       0.011658935 -0.024116673 0.042695954 -0.033864964
000180 f6 18 f9 3d 10 cf b7 bd 72 cc b6 bd ee d1 b3 bd
       0.12162964 -0.08975041 -0.089257136 -0.08780275
000190 d4 6a f4 bb 9a fa d8 3c f2 7b 48 3c ff 0b 4f 39
       -0.007459024 0.026486684 0.012236582 0.00019745527
0001a0 1b dc a5 bd f4 7a b2 3c 12 28 dc bd 07 2b 09 3b
       -0.080986224 0.021787144 -0.1074983 0.0020930187
0001b0 a1 ad 02 3d 7e 10 01 bd 17 34 a4 3c 39 dd a1 bd
       0.031903867 -0.03150987 0.02004437 -0.07903523
0001c0 dc 22 85 3d 33 46 7f 3d d1 58 c9 3c 18 90 56 bc
       0.065007895 0.062322807 0.024578484 -0.013095878
0001d0 d3 80 49 3d 50 71 ba bd 13 71 6e bd 44 a2 22 bc
       0.049195122 -0.09103644 -0.058213305 -0.009926382
0001e0 78 32 b2 bd 81 99 dd 3d 1e 23 48 3d 5d ec 36 bd
       -0.087010324 0.10820294 0.048861615 -0.044659007
0001f0 ce b6 d5 3a 48 bb 89 3c a1 d5 b3 bd f5 70 82 bd
       0.001630509 0.016812935 -0.08780981 -0.06369201
000200 94 ac 1e 3d d6 7a 58 be 62 01 4c 3c 40 0a 19 bb
       0.038738802 -0.21140608 0.012451502 -0.0023352057
000210 eb 04 33 bd c5 5e 45 3d ab 07 bf 3c 81 18 f4 bc
       -0.043705862 0.048186082 0.023319086 -0.02979684
000220 28 03 41 3e 94 15 93 3d b5 8f 71 3c 18 64 c8 bd
       0.1884886 0.0718185 0.014743735 -0.09784716
000230 9a 51 2a 3e 0d 18 f9 bb 8f 34 08 3d 92 65 14 3c
       0.16632691 -0.007601744 0.03325325 0.009057419
000240 02 2b 7f 3d 56 70 f1 3c 10 d4 d7 bc d7 b7 24 3e
       0.062296875 0.029472511 -0.026346236 0.16085754
000250 61 69 c8 bd 2d fd a4 3d 78 0a 98 3d cb ee 51 3c
       -0.097857244 0.08056102 0.07423872 0.01281328
000260 9a 97 88 bd bd e2 f2 bd 6f b4 8a 3b 05 b2 cc 3c
       -0.06669541 -0.11859653 0.004232935 0.02498723
000270 c3 7d 85 bd bd 97 55 bd d2 b0 9b 3c e9 92 02 3d
       -0.06518128 -0.052146662 0.019005213 0.031878386
000280 dc 3c 4f 3e be e8 26 be d7 57 64 bb 69 c7 ac bc
       0.2023806 -0.16299722 -0.0034842396 -0.02109118
000290 7e bf 00 3d f4 9e e2 3a 5e 72 1e be ba 1c 28 3d
       0.03143262 0.0017289803 -0.15473315 0.04104302
0002a0 a4 6d c4 3d a5 31 8f 3b 48 42 3f bc 48 fd 6c bd
       0.09591225 0.0043699318 -0.0116735175 -0.057858735
0002b0 8a a4 2e bd 64 ae 50 3d f9 53 b7 3c 7a e8 d2 3d
       -0.042637385 0.05094756 0.022378908 0.10298248
0002c0 6b 93 01 be 48 b1 85 bd de 56 8f b8 45 57 77 3d
       -0.12653892 -0.06527954 -6.834952e-05 0.06038596
0002d0 b3 77 64 3d 9f 4b db bc 9e d8 3a 3d 52 48 1d bd
       0.055778217 -0.026769457 0.04561674 -0.03839905
0002e0 7f 3d d5 bd f7 37 25 3e 50 52 61 bd 51 5c ee ba
       -0.1041212 0.1613463 -0.05501014 -0.0018185471
0002f0 2d 17 14 3e a9 47 ea 3c d7 d8 07 be 77 c9 4e bd
       0.14461966 0.028598623 -0.13266312 -0.0504851
000300 09 9d a5 3d 96 b6 ac bd 5d e2 88 3c 1c f3 21 be
       0.08086593 -0.08433263 0.0167095 -0.15815395
000310 12 8e 1e bd b6 bb 38 bd 2c 29 5b 3d 74 6c 1b be
       -0.038709708 -0.04510089 0.05350606 -0.1517809
000320 b8 3d 32 bd 6b f2 49 3d 33 a0 9e bd b8 7e 81 bd
       -0.04351589 0.049303453 -0.07745399 -0.06322998
000330 79 b3 ed bc cf 8e 20 3d cf b6 b0 bc ed 3e 00 be
       -0.029016243 0.039198693 -0.021571545 -0.12524004
000340 56 94 85 bd bb 4d da bd df 16 a9 3d d0 a2 1c 3d
       -0.065224335 -0.10659357 0.082563154 0.038241208
000350 03 49 14 3c da e9 50 3d 22 2e 84 bc 88 92 07 3d
       0.0090506105 0.05100427 -0.01613528 0.033098727
000360 8a cb 3b 3d a2 a0 b1 3d 44 9a 3d bd 7a fd 4c bd
       0.045848407 0.086732164 -0.046289697 -0.05004642
000370 ae 7a 83 3d 94 e0 02 bd 5e 6e 1d bd f1 c2 54 bc
       0.06419884 -0.031952456 -0.038435332 -0.012985931
000380 62 87 06 bd d6 2d b0 bc c0 30 4c bd e5 e8 c7 bd
       -0.032843955 -0.021506231 -0.04985118 -0.09761218
000390 ac 45 a0 bd 88 f9 04 3d 34 70 8a 3d 8b 42 b2 bc
       -0.07825789 0.032464534 0.06759682 -0.021760246
0003a0 ae 82 81 3d 94 d8 ff 3c 1b 1d 86 ba d2 2d d7 bb
       0.06323753 0.031231202 -0.0010232063 -0.0065667415
0003b0 6e d5 2b bd 30 7d bc 3c 7f ab 0b be e8 69 5a bd
       -0.04195159 0.023008913 -0.1363964 -0.053323656
0003c0 32 01 34 3d 77 ae c5 bc 73 b7 52 3d c0 3f 01 bc
       0.043946452 -0.024131043 0.051444482 -0.007888734
0003d0 de 08 3f 3e 87 a4 93 3b 95 ee 82 3c 01 a1 39 3d
       0.18655726 0.004505697 0.015982905 0.04531956
0003e0 cc 3a 0c bd dd 66 30 3c 0b ac 63 3c 14 11 df 3c
       -0.03423576 0.010766712 0.013895999 0.027229823
0003f0 cc 9f 40 bd 40 3e 1b bc 27 df d6 bd 61 6b fa 3c
       -0.047027394 -0.009475291 -0.10491782 0.03056878

arith.constant8 f4 [64, 3, 3, 64]
000000 2b 20 a6 bc 21 38 89 bc 16 31 31 3c b4 63 19 3c
       -0.02027901 -0.016750397 0.010814926 0.00936215
000010 78 86 06 3d fc 37 bd bd 4c a0 6b 3d d0 f9 12 3d
       0.032843083 -0.09239194 0.057525918 0.03588277
000020 89 62 1a 3d bc b1 1b bd e1 33 5a bd 92 a3 be bb
       0.037691627 -0.038011298 -0.05327213 -0.005817839
000030 57 3a 01 bc 9c b4 8d bd 68 f1 cb bd fb 27 e7 ba
       -0.007887444 -0.06919214 -0.09958154 -0.0017635816
000040 33 c0 7f bc dc 76 67 3d 1b 5c 16 3d b6 20 7e 3d
       -0.015609789 0.056509838 0.036708932 0.062042914
000050 6a c3 37 bd ca 56 ae bd cf 04 dc bc 5b c9 69 bd
       -0.044864096 -0.085126474 -0.026857762 -0.057076793
000060 0b 5f ba bd ee 70 a2 bd 7a 92 cf bc ff 75 86 bd
       -0.09100159 -0.07931696 -0.0253384 -0.06565475
000070 f4 b4 25 3d c0 05 44 3c 1d 92 79 bd 90 47 bf 3c
       0.040455773 0.0119642615 -0.06093036 0.023349553
000080 7e 6e d7 bd 6e 06 5e bc 35 31 55 3d 92 31 8e 3c
       -0.105191216 -0.013551338 0.05204888 0.017357621
000090 9a 5e ea bc 5b f1 74 3c a7 41 b2 bd b7 9f e4 bc
       -0.028609563 0.014950122 -0.087039284 -0.02790819
0000a0 31 4c 8f bd d3 93 fe bb 82 3c 73 bd e8 eb 3e 3d
       -0.06996954 -0.007769087 -0.059383877 0.046611696
0000b0 35 6c 8a bd 88 1d a3 bc 9e 1b 20 bd e6 21 64 3a
       -0.0675892 -0.019911543 -0.039088838 0.0008702561
0000c0 40 89 43 bc 16 be 0c bd 1f 80 14 bb af e8 88 bd
       -0.011934578 -0.034360968 -0.0022659374 -0.06685006
0000d0 45 f5 ba 3c 98 4e 0b bb a7 4e 88 3c f1 38 94 3a
       0.022822032 -0.0021256562 0.016639067 0.0011308474
0000e0 0e ee e2 3c 19 89 87 3d f2 6c 35 bc 01 d6 42 3b
       0.027701404 0.06617946 -0.011073338 0.0029729607
0000f0 b7 d6 93 bd 12 d4 52 bd e7 4e 48 3b 2a 2f 44 bc
       -0.07218688 -0.051471777 0.0030564608 -0.011974135
000100 d3 62 ff 3b 79 7e 2e bd 57 08 07 3d e0 15 65 3d
       0.007793763 -0.042601082 0.032966938 0.055929065
000110 9e 71 26 bd 5c b7 86 bd a5 3b d5 bc 12 98 05 be
       -0.040635698 -0.06577942 -0.026029417 -0.13046291
000120 c5 fc 85 bd f7 39 5a bd 9c 43 88 3c 7b db b5 bb
       -0.065423526 -0.053277936 0.016633801 -0.0055498458
000130 64 b2 c0 bd 32 a2 6d 3d 05 f0 82 bd 4f a6 b2 3c
       -0.09409025 0.05801601 -0.06393436 0.021807818
000140 cc 63 10 3d 4e e7 f4 bc dc ce 29 bd f9 06 79 3b
       0.035251424 -0.02989545 -0.041457042 0.003799854
000150 e4 49 61 bd 54 13 29 bd 7e d4 6c 3c 69 63 30 bd
       -0.05500211 -0.0412782 0.014454959 -0.043063555
000160 fb 03 6b bd 1c 21 a5 3c ae a7 8b bd e6 26 82 3d
       -0.057376843 0.02015739 -0.06819092 0.063550755
000170 80 a7 85 ba 5f c8 b8 bc 8c c9 b9 3c 98 2e 0c bd
       -0.0010197014 -0.022556482 0.022679113 -0.034224123
000180 8f 55 66 3d 51 b1 82 3b da da 12 bc 31 43 c9 bd
       0.05623394 0.003988423 -0.008963311 -0.09827269
000190 53 08 ba 3c 60 0d 83 bd 79 79 11 bb c2 53 aa bd
       0.022709047 -0.063990355 -0.0022197647 -0.08316757
0001a0 db b4 ce 3b f0 3c de 3c 5c b5 f4 3c e3 b5 02 bd
       0.0063081807 0.027128667 0.029871635 -0.031911742
0001b0 b6 18 7a 3c 16 b4 9f bd 0c f9 80 bd de 80 d3 3b
       0.015264681 -0.077980205 -0.06297502 0.006454571
0001c0 b6 c8 6e bd 82 6e 96 bd d3 c9 59 3d 72 75 8b bd
       -0.05829688 -0.073452964 0.05317099 -0.0680951
0001d0 37 19 63 3d d3 7b ba bd 40 a4 8c bd 18 82 4f bd
       0.05544397 -0.09105649 -0.06867266 -0.050661176
0001e0 91 a5 aa 3c fe 7b cf 3b 44 05 0f bd 2e cc fb 3c
       0.020830901 0.0063319197 -0.03491713 0.030737009
0001f0 f8 0c 5c 3d 51 3d c6 3d 0a 8d 91 bd 01 d5 57 3d
       0.053723305 0.09679664 -0.07106979 0.05269337
000200 54 df 3c 3d e2 f0 7c bb b1 1c 82 bd c9 3f 97 3d
       0.04611142 -0.0038595726 -0.06353129 0.07385213
000210 e6 c6 ee 3c fb ca 1a bc 9f b0 dd bb 81 bf 86 bd
       0.029147577 -0.009447808 -0.0067654396 -0.06579495
000220 3c f3 5f bd db 0b 9b bd 37 4e 4d bd 1f cc a4 bd
       -0.054675326 -0.075706206 -0.05012342 -0.080467455
000230 09 d4 f1 bd b6 f2 8e 3c e3 bb e1 bd e2 34 4b bd
       -0.118080206 0.017449718 -0.11022165 -0.04961098
000240 d2 da 77 bd ff b7 07 3c fb 21 60 bd f1 ad 93 bd
       -0.060511418 0.008283614 -0.054719906 -0.07210911
000250 9c 36 1b bd 31 f5 06 bd b9 9b ff bc f2 4d e6 3c
       -0.037893876 -0.032948676 -0.031202184 0.02811334
000260 ea 21 59 bc f6 d4 88 bd f8 af 21 3d a9 9f 1b 3c
       -0.013252715 -0.06681244 0.039474458 0.009498515
000270 ee e2 ae 3c 35 56 c2 3c 29 a5 1f bd 1e 22 62 3d
       0.021348443 0.023722747 -0.03897587 0.055208318
000280 0d 59 50 3c 8e 94 5b 3c 5b 5b 22 bc b2 db 98 bc
       0.012716544 0.013402117 -0.009909476 -0.018659446
000290 4b f8 09 bd 80 51 89 3d 55 28 15 bd 1c f4 b9 bd
       -0.033684056 0.06704998 -0.036415417 -0.09079763
0002a0 70 7c d5 bd 1b af 89 bd 6a 98 3e 3d 71 6a 4a 3d
       -0.10424125 -0.06722852 0.046532072 0.049417917
0002b0 8c ba 90 bd ec 1f 7a bd 13 3b b1 bd 48 fc 48 3d
       -0.07066831 -0.0610656 -0.08653846 0.04906872
0002c0 a6 de 0b bd 91 46 b8 bd 6f 42 17 bd a9 14 f9 bd
       -0.03414788 -0.089978345 -0.03692859 -0.12162144
0002d0 9e fa 4c bd 6d 45 64 bd 63 3a 42 bd b0 8b d4 bd
       -0.050043695 -0.055730272 -0.047418963 -0.10378206
0002e0 41 dc 21 3d 80 c6 ad bc ae 6f 9f 3c 55 4c 6b 3b
       0.03951669 -0.021212816 0.019462433 0.0035903652
0002f0 b1 84 94 bd a2 bb 8d bc db 00 8f 3c 72 f8 4f bd
       -0.072518714 -0.017301384 0.017456463 -0.050774045
000300 76 39 af bb 1a ab ac 3c e3 2c a8 bd 50 c8 0c 3d
       -0.005347426 0.021077681 -0.082116865 0.03437072
000310 b0 b9 15 3d 4d ba e8 bd 22 25 81 3d 7a b4 62 bd
       0.03655404 -0.11363659 0.06305911 -0.055347897
000320 3d ce 2b bd 19 ff 30 3c 65 63 06 3d 6c 18 b1 bd
       -0.04194473 0.0108030075 0.032809634 -0.08647236
000330 45 d6 58 3c bb c0 6a 3c 3b 26 ff bd 86 9f 83 bd
       0.01323468 0.014328177 -0.12458464 -0.06426911
000340 24 26 8f bc 9a 3a 19 3d 1f 86 88 3c d1 ad b0 bc
       -0.017474242 0.037409402 0.016665516 -0.021567257
000350 76 ca 56 bd 4f 0a 4f bd fe 4e f5 3b 5d 46 af 3c
       -0.052439176 -0.05054694 0.0074862232 0.021395857
000360 12 90 9b 3c 3c 62 87 bd 87 ad da 3c 7e d7 8f bc
       0.018989597 -0.066105336 0.026694072 -0.01755881
000370 b5 64 80 bd 36 4d 02 39 1b 28 d8 3c 26 3a e0 3c
       -0.06269208 0.0001242653 0.026386311 0.027371477
000380 7c 62 e7 bc cc b7 5b bd 09 66 0f bd ca f6 c2 bc
       -0.028245203 -0.05364208 -0.035009418 -0.023799319
000390 68 6f 79 3d 4b db 7f 3d 74 69 35 3c c2 32 85 bd
       0.06089726 0.062464993 0.011072505 -0.06503822
0003a0 8d aa 80 bc 1d 3a 76 3b 82 09 c3 3c 9b d3 8b 3b
       -0.015706325 0.003757126 0.023808245 0.0042671687
0003b0 31 10 2f 3b 7c fb 00 3d fc 6c 39 bd 30 3b 86 3d
       0.0026712532 0.031489834 -0.04526995 0.06554258
0003c0 b5 0a 41 bc bb 05 26 bd 47 d3 99 bd c1 b8 d9 bd
       -0.011782338 -0.04053281 -0.07511001 -0.10630942
0003d0 28 a3 f5 3c 83 d7 22 3d cb 0b f5 bc 80 6b cd 3c
       0.029985026 0.03975631 -0.02991285 0.025075674
0003e0 df e0 5a bd c5 56 9e 3c 31 d6 c9 3c e0 b0 9c bd
       -0.05343711 0.019328484 0.024638267 -0.07650924
0003f0 7d f6 2c 3d 16 fa b3 bd de b6 19 bd 47 db 98 3c
       0.042227257 -0.087879345 -0.03752791 0.018659247

arith.constant9 f4 [64, 3, 3, 64]
000000 f1 27 85 bd 50 e1 46 3c 4c 15 91 bc ec 0d 5e bc
       -0.06501759 0.01213868 -0.01771035 -0.013553124
000010 de 88 1b 3d 8b 04 99 bc 47 63 5a 3d 06 b7 e4 bc
       0.037972324 -0.018678924 0.053317335 -0.027919304
000020 77 5b 3a bd 3d e9 28 bc 72 e6 9f bc 33 e6 92 bd
       -0.045497384 -0.010309515 -0.019519065 -0.07172813
000030 a0 1a 90 bc d7 b8 3c 3d 30 98 96 bd 0f 4e 9b bd
       -0.01759082 0.046074715 -0.07353246 -0.07583248
000040 3a 28 4b bd a0 6e 49 bd ed 3a ac 3c 25 c0 35 3d
       -0.04959891 -0.049177766 0.021024192 0.044372696
000050 38 b0 38 3b 79 1e d4 bc c9 9b 62 bd 9f 25 82 bd
       0.0028181206 -0.025893437 -0.05532435 -0.06354832
000060 8b fc 1d bd 66 40 67 bd 26 b1 59 bd 3d cd 5c 3d
       -0.038570922 -0.0564579 -0.053147458 0.053906668
000070 70 f2 d3 3c b2 e7 47 bd 93 43 3b bd 90 d0 3e bb
       0.02587244 -0.048804946 -0.04571874 -0.0029116012
000080 6d 90 07 bd 3e 6d 9f 3c 3d 82 fe bd 97 63 37 bc
       -0.03309672 0.01946127 -0.12427185 -0.011193178
000090 d8 68 ca bc c2 d8 5a bd 75 cb bc 3b cf ed f7 bb
       -0.024708197 -0.053429373 0.0057615587 -0.007566191
0000a0 50 d2 d5 bc f2 34 01 3d fe e1 96 3b 22 8b 83 bd
       -0.026101261 0.031544633 0.004604577 -0.06423022
0000b0 a3 88 90 bd f6 71 fa 3b ee be 4d 3d 39 5f b2 bc
       -0.070573114 0.0076429797 0.050230913 -0.021773921
0000c0 cb 0a 2c bd 39 37 8c 3d 1d 21 37 3c 8c a7 9b 3c
       -0.04200248 0.068464704 0.011177328 0.019000791
0000d0 3f 7b 8c bd e4 cc 24 bd 24 de be bd 82 52 7b 3c
       -0.06859445 -0.04023446 -0.09319714 0.015339496
0000e0 82 c1 8f 3c 84 13 27 3d 83 83 ae b9 86 74 9c 39
       0.017548326 0.040790096 -0.0003328585 0.00029841455
0000f0 4c 28 3b 3d 57 50 ec 3c ea cb b5 bc 38 1d 84 bd
       0.045692727 0.028846903 -0.02219196 -0.064508855
000100 b5 92 19 bd fc 99 73 bd 3f 11 63 bd 2b b6 3f bd
       -0.037493426 -0.059473023 -0.05543637 -0.04680459
000110 ab 58 2b 3c 45 fa 1f 3c 29 e5 55 bd b6 51 c4 3a
       0.010458152 0.009764259 -0.052220497 0.0014977965
000120 39 54 e1 bd 10 4e 5b bc 04 5a f5 bd 7f c9 00 3c
       -0.11002392 -0.013385311 -0.1198006 0.00786054
000130 fb ac 13 bd 17 0a 0b 3d 63 0a 0d 3d c7 4c 02 3d
       -0.03605364 0.03394517 0.034433734 0.0318115
000140 87 6f d5 3c 31 a2 f3 3c ef 07 07 3d ed b5 7b 3b
       0.026054157 0.029740425 0.03296655 0.0038407997
000150 52 81 b6 bd 88 fa c1 bd 0b 23 80 bd df 70 41 bd
       -0.08911385 -0.09471613 -0.06256684 -0.047226783
000160 8e 2b 87 bd 53 18 6a 3d 5a 84 59 3d eb 35 cd 3c
       -0.06600104 0.057152104 0.053104736 0.025050124
000170 e4 a4 6a bd db 8e 14 3d 55 a5 52 3c 94 7f fd bc
       -0.05728616 0.03626905 0.012856801 -0.030944623
000180 04 70 2e bc ad 84 9e bd 44 8b e4 bd 26 02 e1 3c
       -0.010646824 -0.0774015 -0.11159375 0.027466845
000190 55 1b 2c bd c4 53 a1 bd 31 72 bc 3c e1 cf bb 3c
       -0.042018253 -0.07877305 0.02300367 0.022926273
0001a0 17 16 a0 3c 22 e7 63 3c 89 93 87 bd bb d0 85 3c
       0.019541783 0.013910087 -0.06619937 0.016334882
0001b0 9d cc ca 3c 77 67 86 bc dc 51 a5 3c e8 b7 35 3c
       0.02475577 -0.016406758 0.020180635 0.01109121
0001c0 b4 99 28 3d b9 91 58 bc 17 5f b7 bc 48 34 0f bd
       0.041162208 -0.013218337 -0.02238421 -0.03496197
0001d0 31 70 48 3d 41 d9 8e bd 63 3c e5 bd da 06 05 3c
       0.04893512 -0.06975032 -0.111931585 0.008119309
0001e0 90 30 5e bd 52 b4 bf 3c 5a 75 70 3d c8 32 8d bd
       -0.05424553 0.023401413 0.058705665 -0.068944514
0001f0 9b 1f ca bc 80 82 17 ba b7 e3 7a bd e0 f6 27 3d
       -0.024673274 -0.0005779639 -0.061252322 0.041006923
000200 0f 10 ec bb c9 33 17 3d ce 34 93 bc e6 d4 e5 bc
       -0.007204063 0.03691462 -0.017969515 -0.02805562
000210 d7 8d 45 bd 6e 84 4f 3d 2f b4 54 3d dc 61 2f 3c
       -0.048230972 0.050663404 0.05192965 0.010704484
000220 d5 63 09 bb 00 84 54 bd 3e 16 14 bd 7c f6 5c 3d
       -0.0020964046 -0.051883698 -0.036154024 0.053946003
000230 1b a4 04 bd be 6a aa bc 94 ae 09 bd fd 96 20 bd
       -0.032383066 -0.020802852 -0.033613756 -0.039206494
000240 eb c2 0f bd 7e 07 d8 3c 30 59 6a 3d c1 f9 87 bd
       -0.035097998 0.02637076 0.057213962 -0.06639434
000250 0e 52 b3 bc 36 e3 80 bd 30 52 48 bd 5b 37 93 3c
       -0.021889713 -0.06293337 -0.048906505 0.017970731
000260 5e f1 82 3d c2 ac fa bc 59 38 40 3d 8c d5 81 bd
       0.063936934 -0.030599955 0.046928737 -0.06339559
000270 11 3a eb 3b de 00 8c bd ec 7d a8 bd f1 b5 80 bd
       0.007178553 -0.06836103 -0.08227143 -0.062847026
000280 12 24 8f bb 9f d2 f8 b8 c3 7b 07 be ad e0 d5 bd
       -0.0043683136 -0.00011864793 -0.13230805 -0.10443244
000290 3c 92 38 3d 80 45 4f bd a2 91 53 bd 19 cf 82 bd
       0.045061335 -0.05060339 -0.05165256 -0.06387157
0002a0 4c 3c 32 bc 9f 6e 97 3a d2 59 a1 ba a8 9a 78 bc
       -0.010878634 0.0011553353 -0.0012310094 -0.015173592
0002b0 57 2f 85 bd 15 28 b4 bc 66 72 b8 bc a1 be fd bc
       -0.0650317 -0.021991769 -0.022515487 -0.030974688
0002c0 5a 88 ac 3b a5 34 70 3d 45 f7 87 bb 4e 26 ea bb
       0.005265278 0.058643956 -0.00414935 -0.0071456796
0002d0 e2 cf 89 bd 67 e1 b1 bd 40 8f b9 bb 53 e2 98 bd
       -0.067291036 -0.0868557 -0.0056628287 -0.07465043
0002e0 e5 6a 27 bd 1b 83 1d 3d 5c 3c 1c bc ac 95 b8 bc
       -0.040873427 0.03845511 -0.009535875 -0.022532307
0002f0 cf ee 8e bd 65 24 4f 3b 94 5d 19 3c 0d 5f 8b bd
       -0.06979143 0.0031607386 0.00936069 -0.06805239
000300 c8 b2 9f bd af af 59 3b 0c b8 64 3d aa 60 87 bd
       -0.07797772 0.0033216288 0.055839583 -0.06610234
000310 0c 9c 62 bd dc 21 ca bd 4d 14 9a 3c 25 5f 60 bd
       -0.0553246 -0.098697394 0.018808508 -0.054778237
000320 7f bc f9 bc b8 32 bd bc d6 e1 9f 3c 0e cb 44 3d
       -0.03048539 -0.023095474 0.019516867 0.04804521
000330 35 1b dc 3c 31 ec 11 bd 3e d3 66 bb db d9 33 3d
       0.026868442 -0.03562564 -0.0035221125 0.043908935
000340 14 ca ed bc f0 ef 6d 3c f5 f0 77 b9 da de cb bb
       -0.029027022 0.014522538 -0.00023645519 -0.0062216343
000350 99 47 3b bd c0 f5 18 bc 08 a3 05 3d cf a9 25 3d
       -0.045722578 -0.009335935 0.03262618 0.040445145
000360 72 f4 78 bd 56 3b 85 bd af 5b 85 bd 3e 58 a7 bc
       -0.060779996 -0.06505458 -0.06511628 -0.02042782
000370 4f 98 07 3c 68 28 10 bd e9 36 9f bd 64 b6 3a 3d
       0.008276059 -0.035194784 -0.07774145 0.045584098
000380 c1 07 77 3d 71 a0 e7 3a 71 65 c0 bd fd d6 ff 3c
       0.06031013 0.0017671717 -0.093943484 0.031230444
000390 af 91 78 3d a5 3d 12 bd 5e e0 60 bd 64 f6 3f 3b
       0.06068581 -0.03570332 -0.054901473 0.0029291147
0003a0 6e 5b 0f 3d 24 83 60 bd 2c 5c 98 bb a8 69 65 bd
       0.034999304 -0.054812565 -0.0046496596 -0.056008965
0003b0 fd b8 83 bd 85 20 61 3d 04 66 38 39 a5 fb 41 3d
       -0.06431768 0.054962654 0.00017585611 0.047359128
0003c0 82 3c 82 bc 6c 7a 3a bd 3f 47 11 bd b5 f9 10 ba
       -0.015897993 -0.045526907 -0.035468336 -0.00055303733
0003d0 c9 32 9b bd 9c 35 c6 3c fb ae b5 bc 2d 70 9a bc
       -0.07578046 0.024195485 -0.022178164 -0.018852318
0003e0 4c 90 b6 bc 0a c9 74 3d a9 86 8b bd ad e3 cb bd
       -0.022285603 0.05976204 -0.06812794 -0.09955535
0003f0 ce a8 82 bd 40 e5 8a bc 6c 19 07 bd a2 0a 2c 3c
       -0.06379853 -0.016955018 -0.03298323 0.010500582

arith.constant10 f4 [64, 3, 3, 32]
000000 ed 0c 73 3d e7 e5 95 3d 5b cf 9f bd 00 d4 2f 3d
       0.0593385 0.07319241 -0.07803222 0.04292679
000010 24 7c b7 bd 84 55 53 3c 3d 90 37 bd 5f 76 92 bc
       -0.08959225 0.0128988065 -0.04481529 -0.01787871
000020 78 a7 05 bd 9b 8e 44 3d f4 ad 13 3c 8c c5 62 bd
       -0.032630414 0.04798756 0.009013642 -0.055364177
000030 49 3e 0e 3d ab c2 18 bd 9d 2c 0d bd 44 7e 1e bd
       0.03472737 -0.037295025 -0.034466375 -0.038694635
000040 aa 2a 1a 3d f0 af 6e 3d 98 c1 c9 bd 1c 89 bd 3c
       0.037638344 0.058273256 -0.09851378 0.023136668
000050 72 b3 17 3c b9 22 48 3b c5 c2 87 bd 81 17 0b 3d
       0.009259092 0.0030538274 -0.06628946 0.033957962
000060 a0 5f 40 bd a6 03 ed 3a f8 a0 8b bb fe 0c 49 bc
       -0.046966195 0.0018082752 -0.0042611323 -0.012271164
000070 3c 2c 21 3d f7 61 04 3d 6c 92 ce bb ec bb 35 bd
       0.039348826 0.03231999 -0.006304076 -0.04436867
000080 d0 38 d4 3c 21 e8 96 bd 85 80 af bd be 90 40 3c
       0.025905997 -0.07368494 -0.08569435 0.011753259
000090 a3 ac e3 3c 3d 43 17 3d 38 2d 56 bd 1b 25 7b bd
       0.02779228 0.036929358 -0.052289218 -0.061314683
0000a0 c5 80 44 3d ea 84 8e bd 68 57 d3 3c 15 19 97 3d
       0.047974367 -0.06958945 0.025798514 0.07377831
0000b0 a1 33 50 3d bf f7 48 3c c1 5b b7 39 1f 91 c0 bc
       0.050830487 0.0122660985 0.00034972842 -0.0235067
0000c0 7b a1 cb bd 6f 62 79 3d 96 19 55 bd aa db 73 bc
       -0.09942909 0.06088489 -0.052026354 -0.014883915
0000d0 6f d7 9d bd 39 ff 04 3d 1b 1b 86 3d 5f 5a 32 3a
       -0.07707106 0.03246996 0.06548139 0.00068036275
0000e0 0e d1 43 bd 7a 32 26 3d b4 60 b3 3d 62 4e ed 3b
       -0.047806792 0.040575482 0.08758679 0.00724201
0000f0 d4 36 3a 3d 75 ff 17 3c a3 5d bc bc c0 ca 09 3d
       0.045462444 0.009277214 -0.022993868 0.033640623
000100 cc b0 a6 bd 79 da b5 bc 70 bf 07 bd 7d 89 b1 bc
       -0.0813919 -0.022198902 -0.033141553 -0.021672005
000110 ef a4 c3 bc aa 90 85 bd 4c 02 9f bd b4 83 3b bd
       -0.023882357 -0.06521733 -0.0776411 -0.0457799
000120 97 40 bd 3c f1 e6 03 bd 20 05 ff bc 22 49 4f 3d
       0.023102088 -0.032202665 -0.031130373 0.050606854
000130 83 73 8d bd 07 7d 0a bc 9c 1d f0 3c 9f 0e ce bc
       -0.06906798 -0.00845266 0.029310994 -0.025153456
000140 d6 ab 9d bd d3 89 95 bd 67 26 14 3c 73 d2 8f bd
       -0.07698791 -0.073016785 0.009042359 -0.07022562
000150 56 54 48 bc 94 93 5c 3d 41 71 e6 3c 08 24 99 bd
       -0.0122271385 0.05385168 0.028130176 -0.074775755
000160 cc 90 5b 3d 53 ed 9b bd 9a b5 cd 3b 4d 83 06 bd
       0.053604886 -0.076136254 0.006277752 -0.032840062
000170 38 c2 51 bd 88 d5 11 3d bf 69 fb 3c 1c 8f 10 3c
       -0.051210612 0.03560403 0.030690072 0.008823182
000180 3d 0a e5 3c 53 e4 93 bd bb 8e 7b bc 93 02 bf 3c
       0.027958984 -0.07221284 -0.015353854 0.023316657
000190 1e 83 30 3d 70 a6 99 bc a3 af 7b 3c b2 be b1 bd
       0.043093793 -0.018756121 0.015361699 -0.0867895
0001a0 33 f0 94 bd fb 37 25 bd 4e fb 9e bd 48 e1 74 bc
       -0.07272377 -0.04033659 -0.07762776 -0.014946289
0001b0 ed 5c 9c bd e2 4c c3 bd c8 2c b1 bd 90 2f 34 3c
       -0.07634912 -0.095361486 -0.086511195 0.010997668
0001c0 aa ef 1b 3d 93 e5 9e 3c ad b4 be bd 5c e7 82 3d
       0.03807036 0.019396579 -0.09311805 0.063917845
0001d0 ba a3 c9 3c 13 ce 96 3d f7 a8 40 3d 4d cc 66 bd
       0.024614204 0.07363524 0.047036137 -0.05634718
0001e0 4b 0a 91 bd c4 7c 89 bc b7 47 85 bd b6 a6 d9 ba
       -0.07082041 -0.016783126 -0.06507819 -0.001660547
0001f0 b8 43 de 3c 6e c0 81 3d 4f 28 ea 3b af 85 d7 3c
       0.0271319 0.06335531 0.0071459184 0.026308862
000200 60 ad 72 bd e4 bf a9 3c d3 08 46 3d 71 59 39 bc
       -0.059247375 0.020721383 0.04834826 -0.011312828
000210 26 06 9d bd 4a 1a 80 bd 61 d7 79 3c 22 8f 83 bd
       -0.07667188 -0.06255014 0.015249104 -0.06423785
000220 34 e3 b4 bd 78 ad ae 3c 70 f4 28 bd 55 5d 79 bd
       -0.08832398 0.02132295 -0.04124874 -0.060880024
000230 a1 de aa bd 0f 72 8e bd 87 c1 9e bd 8c 50 7c 3d
       -0.08343244 -0.06955349 -0.07751756 0.061600253
000240 23 1a 50 3c af 0e 8a 3d e0 65 e2 bb 70 7e 80 3d
       0.012701544 0.06741082 -0.006909117 0.06274116
000250 af 9a 7c bd 67 7b 8b 3d 78 dc 9c 3d 26 4a bc bd
       -0.061670955 0.068106465 0.076592386 -0.0919383
000260 33 50 ef 3c cc 8d 06 bd 55 54 d9 bc 4b b5 8d 3d
       0.029213047 -0.03285007 -0.02652947 0.069193445
000270 15 b7 61 bd d6 1e fa 3c ff 45 c9 3c da ec 6e 3d
       -0.05510624 0.030532282 0.02456951 0.058331348
000280 7f d4 99 3c bf 5f 83 3d a3 38 4f 3d ff 17 26 3d
       0.018778084 0.064147465 0.050591122 0.04055023
000290 f0 18 4b 3d f9 39 a2 bb 0a be 6e 3d 51 e5 62 bd
       0.04958433 -0.0049507585 0.058286704 -0.055394474
0002a0 4f a8 1e bd 25 50 3a 3d 8a 78 16 bd 30 dd a8 3b
       -0.03873473 0.045486588 -0.03673605 0.0051533207
0002b0 0a f7 b1 3b 42 98 56 3d 7b 4a 32 3c e7 14 8d bc
       0.0054310607 0.052391298 0.010882015 -0.017221881
0002c0 0e 40 d2 bd 91 21 04 3d ce 6d 84 3c 2f 58 41 3d
       -0.10266124 0.032258574 0.01616564 0.04720324
0002d0 57 ea c3 3c ec 24 69 3c 57 80 4d 3d 89 d0 87 bb
       0.023915453 0.014229994 0.050171223 -0.0041447324
0002e0 b9 e8 58 bd 58 ca 96 bd b4 4d af 3c 5a 7e 67 3d
       -0.052956317 -0.07362813 0.021399356 0.056516983
0002f0 d8 9f 80 bd a1 14 84 bd 66 27 9b 3d 4f 55 01 bd
       -0.06280488 -0.06449247 0.07575874 -0.031575497
000300 85 05 2f bd 2f 53 8a 3d 0d be 4f bd 28 10 79 bc
       -0.042729873 0.06754147 -0.050718356 -0.015201606
000310 42 25 d3 bb 5e 02 03 bd c5 f3 05 3d 65 79 0d bd
       -0.0064436505 -0.03198468 0.03270318 -0.0345396
000320 55 63 46 3d e4 0a 2a 3d 58 39 55 bb b9 eb 83 3d
       0.048434574 0.041514292 -0.00325354 0.06441445
000330 9e 13 95 3b 30 c1 73 3d f0 16 9b bd 3c 7a 3d bc
       0.0045494577 0.05951041 -0.07572734 -0.0115647875
000340 0b e3 09 bd ed db 19 bd 13 e1 c1 3a 2f 0a da bb
       -0.03366379 -0.037563253 0.0014791809 -0.006654046
000350 4f 99 8d bd 23 80 96 bd 76 a0 38 3b f6 73 ba bd
       -0.06914007 -0.07348659 0.0028171814 -0.09104149
000360 4e 7f 13 3d 6b d3 b3 bd 52 ca 98 bb 7d 4f a3 bd
       0.03601008 -0.08780559 -0.0046627903 -0.079741456
000370 de c3 5d bd f5 4e 68 bb 10 b6 76 3d 91 55 af bd
       -0.05414187 -0.0035447453 0.060232222 -0.08561242
000380 e8 7d aa ba 2c 0b 10 bd 0a 52 7a bd 4c 0d 9b bd
       -0.0013007494 -0.035166904 -0.061113395 -0.075708956
000390 65 55 b2 bd d2 ab 9d 3c f0 55 a6 3a 2b 33 84 3d
       -0.08707694 0.01924697 0.0012690406 0.06455072
0003a0 b8 ae a7 bd e5 e4 af bd 1d 92 a1 bd 3b b7 37 3d
       -0.08187622 -0.0858858 -0.07889197 0.044852477
0003b0 3b 4e 85 38 ec 83 22 bd 95 50 ae 3c 6d 64 9a 3c
       6.356506e-05 -0.03967659 0.021278659 0.018846715
0003c0 07 ac 5b 3d 8b fe 1d 3d 96 3e 18 bd 2e 27 bf 3c
       0.053630855 0.03857283 -0.03716906 0.023334112
0003d0 b1 e9 8c bc 0c ed fd 3b 47 2d d3 3c 63 82 65 bd
       -0.017201276 0.0077492055 0.025778426 -0.05603255
0003e0 e7 41 d3 bc b1 ad 84 bd bc 76 d5 3c 1f eb 5a 3c
       -0.02578826 -0.064784415 0.026057594 0.013361721
0003f0 73 7c e5 bc 69 a6 8f bd a5 ee 99 3c 75 55 76 bd
       -0.028013444 -0.07014162 0.018790552 -0.060140092
